experiments/pruning/DGNN/autonomous_syst.ckpt (torch, 110475 bytes, 6 tensors)

w_list.0 f4 [30, 691]
00000000: f63c 123f c5b9 7e3b 850a 3fbe 17d4 c33e
00000010: fb07 2dbf eb79 8e3e 59d6 5fbd 1ed8 993d
00000020: e2c1 3c3f a86b 033f 002a 343f a7ab 173f
00000030: 82d2 573f 20cd 523f b16c 103f 94b1 e63e
00000040: e4d6 383f 842e 8b3f 5e2e 803f ea8a 08bf
00000050: b096 4c3f 3bd0 703f 1ed5 833f c51f ad3f
00000060: 732b a73f 6aa3 a63f b931 b93f f23e 893f
00000070: 0de6 843f 5a27 e63e 4984 183f 1df6 a7be
00000080: ccf8 f4be 3179 1a3f 9f68 913f b805 113f
00000090: f141 063f 2ff3 2a3f a5c3 c83e c86f 6b3f
000000a0: 9ca7 163f 8968 383f c0a5 953f edd6 873f
000000b0: ad85 873f e440 443f e1f8 543f e17b ad3e
000000c0: 3e71 2b3f 3552 303f ea99 503e 753c c1be
000000d0: a989 023e d3cf 683e 78dc 463f 6c0e 483f
000000e0: 74c2 3a3f cb39 353f fac7 1a3f 10dd a03f
000000f0: 611c 2140 b566 0640 a552 0c40 f63d 0b40
00000100: cfc8 ea3f 42c1 bf3f e1d5 d13f 3eec b93f
00000110: 07c9 b53f ae26 e83f 99a0 843f 94fc 1f40
00000120: 6f5e 4340 d9f4 3940 ee47 0540 527f 4e3e
00000130: 3935 763f d5d7 763f e865 373f 8652 1b3f
00000140: 8f7e cd3e 35e3 f93e 08b5 20bd 7213 72be
00000150: aca9 1b3c b467 ad3e b98d 493e dece acbe
00000160: 2271 4ebe 8c8b 043e 25f0 a33c 262e c63d
00000170: dcf1 98be c637 9c3f 6aa8 293e e78d 8ebe
00000180: a38d 2a3f 2982 863e 3ff2 803f d184 023f
00000190: 14ab 523e 782c 9ebd 7eba 2ebd 9eb6 5840
000001a0: 30c5 8e3e a23f b63e 3be1 1240 950f 4340
000001b0: ba49 3640 454f 6040 58b6 6d40 b95a 7540
000001c0: cfb6 cd3f b226 cf3f 8d2f 8b3f 3816 963f
000001d0: 12d6 563f eb41 813f 0daf f83f 7b91 df3f
000001e0: 6f8d 9e3f 3aed dc3f 3365 1c40 0f11 fd3f
000001f0: a482 a1bd 532d a23d 6f3d 98be 7810 a0be
00000200: a391 8b3e 8866 04be f31c 5a3e 19b5 053d
00000210: 9f75 b63d c632 79be 1ab7 9fbd c2a6 763e
00000220: e67f 2b3e fe36 d8bd 2dfe 373d 0b23 8f3e
00000230: 71cf a3be 802e 703e 45c0 e0bd 5622 98bd
00000240: 00ee 313e b550 9bbe 6cf2 61bd c7a8 b23e
00000250: e292 063e d342 0abe 43e4 a2bd 2970 933e
00000260: 4e44 0d3e d773 e93f 05ea 0f3f 8b06 e43f
00000270: 980a 1040 6e48 e73f bdba f53f 0d6f a03f
00000280: eada 953f 5ab3 7c3f a75b c33f 8dd1 1240
00000290: bb78 3a3f 63ed 9dbe 762b bf3f 22e2 733f
000002a0: 9c7f ce3e a839 1f3f d057 533d 5a6a 8ebe
000002b0: 330d b83e 0f7d 8c3e 64d3 313e 380e b93e
000002c0: db12 47be 73ef 54be cedd 5abe 3ed2 90bc
000002d0: 8408 a5be 8900 943e 6ae6 193c d434 3a3e
000002e0: 7457 4dbe 9c15 1abd e5b7 443d f3ae ccbd
000002f0: bd77 b03e aed4 2abe 5232 e83d d5b3 7dbe
00000300: 9d07 31bd 9c74 af3f 0317 e93f 6cfc bf3f
00000310: 891a 0c40 9ba1 f33f f411 f03f cdab f13f
00000320: 97ca d43f 683e 463f 8359 853f f509 173f
00000330: abe9 3f3f 2669 7a3f 5097 7f3f 0b3e 753f
00000340: a383 753f cb08 4e3f 9219 be3e a0e6 8c3f
00000350: 12f4 833e cafd 5a3e 8838 adbe f12a aabe
00000360: 3abc 5fbe 8a72 363d 769d 8abd 6b26 a13d
00000370: 66d5 b1bd e5c6 74be ba93 463d e53e 7d3e
00000380: 9d82 60be 8ee1 a33e a50c b83d 4158 b83e
00000390: 945c abbe d1f4 b2be b1b5 fd3d d268 aebe
000003a0: b135 99be c820 3e3e 0e82 353e b05b aabe
000003b0: 8d87 863e 5f69 91bd bbcc 8a3e c96d 5bbe
000003c0: 50c5 b1be 36df 77be f8dd 67bd aeb7 babe
000003d0: 52cf cbbc 009d 3abe b60e aebd 9ecf 59b8
000003e0: c9e2 a73c 83e0 b6be d854 403e 682b 65be
000003f0: 28df 633e e34f ab3e 8764 f9bd cedc 273d
0.5712427 0.0038868051 -0.18656357 0.3824775 -0.675903 0.2782739 -0.054647777 0.07511924
0.7373334 0.51336145 0.70376587 0.59246296 0.84305584 0.82344246 0.5641585 0.45057356
0.722029 1.087357 1.001415 -0.53336966 0.7991743 0.94067734 1.0299413 1.352532
1.3060135 1.301862 1.4468299 1.0722334 1.0382706 0.44951898 0.5957685 -0.32804957
-0.47846067 0.60341173 1.1360053 0.5664935 0.5244437 0.6677732 0.39211765 0.9196744
0.588495 0.7203451 1.1691208 1.0612465 1.058767 0.76661515 0.8319226 0.33883575
0.6696967 0.6887544 0.20371214 -0.37741438 0.12747826 0.22735529 0.7768016 0.78147006
0.7295296 0.7079131 0.6046139 1.2567463 2.517357 2.1000187 2.1925442 2.1756568
1.8342532 1.4980853 1.6393396 1.452522 1.4201974 1.8136804 1.036151 2.4997911
3.0526388 2.9055693 2.0825152 0.20165756 0.9617496 0.96423084 0.7163987 0.60672796
0.4013562 0.48806158 -0.039235145 -0.2364023 0.009500902 0.33868182 0.19682969 -0.33751577
-0.20160344 0.12943858 0.02001197 0.09676771 -0.29872024 1.2204521 0.16568151 -0.27842638
0.6662237 0.2627118 1.0073928 0.5098391 0.20573074 -0.077233255 -0.04265832 3.386146
0.27884817 0.35595423 2.294997 3.047826 2.84825 3.5048382 3.7142544 3.8336623
1.6071414 1.6183684 1.0873886 1.1725531 0.83920395 1.0098242 1.9428421 1.7466272
1.2386912 1.7259896 2.4436767 1.9770831 -0.07886246 0.07918801 -0.2973437 -0.31262565
0.2725955 -0.12929738 0.21300106 0.03264341 0.08909153 -0.24335775 -0.07798596 0.2408705
0.16748008 -0.10557364 0.044920135 0.27956423 -0.31994203 0.23455238 -0.109741725 -0.07428424
0.17375946 -0.30335012 -0.055162832 0.34894392 0.13141969 -0.13502054 -0.07953694 0.2879651
0.13795587 1.8238477 0.5621646 1.7814497 2.2506466 1.8068979 1.9197613 1.253389
1.1707432 0.9871117 1.5262345 2.29404 0.7284047 -0.30845174 1.4935138 0.95266926
0.40331733 0.6219735 0.051597416 -0.27815515 0.3594757 0.27439162 0.17365795 0.3614366
-0.19440787 -0.20794468 -0.21373674 -0.017678376 -0.3223306 0.28906658 0.009393314 0.18184215
-0.20052892 -0.037618265 0.048026938 -0.099943064 0.34466353 -0.16682693 0.11337723 -0.24775632
-0.04322015 1.3707461 1.8210148 1.4998908 2.1891196 1.9033693 1.8755479 1.8880554
1.6624326 0.77438974 1.0417942 0.5899957 0.74965924 0.97816694 0.9984026 0.95797795
0.95903987 0.80482167 0.37128884 1.1007881 0.25772148 0.21385875 -0.33832192 -0.33235887
-0.21849146 0.044542827 -0.067683145 0.07868656 -0.08683281 -0.23903997 0.048480727 0.24731024
-0.21924825 0.32008022 0.08986787 0.36004832 -0.3346907 -0.34952405 0.123881705 -0.34064347
-0.29923776 0.18567193 0.17725393 -0.33273077 0.26275292 -0.07100176 0.27109322 -0.21428598
-0.3472085 -0.24206242 -0.05660817 -0.3646826 -0.024879131 -0.18223953 -0.084989 -5.193019e-05
0.020493882 -0.35718164 0.18782365 -0.2237984 0.22253096 0.33459386 -0.12177377 0.04098206

w_list.1 f4 [30, 30]
00000000: 7653 1d3f 6536 22bf 9958 1237 9259 ef3d
00000010: 87c1 39be cab4 54be 369e c13b cc83 f13e
00000020: cd15 10bf a788 97bc 3d35 093f e35b 593e
00000030: 4442 073f f290 22bf 48c0 01bf 3aad 25bf
00000040: 1ba8 db3e e511 debe 978f 0f3e 371e f83e
00000050: 028f 7fbe 18e0 d9bd a42d 373d 81c4 953e
00000060: 0ee5 263c 5ccb fc3e bad1 4d3d ee95 ebbe
00000070: 4cfb f23e 498e 283f 0cbd 28bf f00f 683f
00000080: 740a 3bbd 8ab9 1cbf d67e b8bf 05c0 8e3f
00000090: b0a7 cf3d 2764 8ebd 1ced 87be a84d 5e3e
000000a0: 8fc0 0d3f 0dc5 933d a880 7d3e 6234 57be
000000b0: 479d 8ebf c25a b43f 5aba 19bf 45a2 9ebd
000000c0: 020f dabe 28ef 9ebe 797a f1bd a9dc 5cbf
000000d0: f120 dc39 8b1b bb3e e9c2 e83e 9361 283f
000000e0: e126 6abf 38e3 16bf 09a3 cb3e 5a95 bfbe
000000f0: 8507 81bc b874 303e 210f 573e 9e31 78be
00000100: 4379 4fbd 2dfa e43e e396 cabe 0e22 193f
00000110: cb96 68bf 1ca1 0bbf e93f 383f 135d 243e
00000120: 6ff0 61be ac05 1d3f ca2b 9f3f a914 9fbf
00000130: 9c86 1e3e 613c 693f 2e52 273e 6f89 66bd
00000140: 8dbf 19bf 8ade 27bf 7a82 42bc 0d62 873f
00000150: c02e 1d3e 0fe9 2ebf 446d 503f 5c82 a7bf
00000160: 2715 4c3f 1fc2 a8be ba93 81bd 471a aabe
00000170: 0d16 1a3e ec4b 063e e922 aabe 4046 aa3e
00000180: 2aa6 fb3e 732c 88bf 924e 0fbf c69c e6be
00000190: 5e96 1e3e 4ce0 a8be bb64 2a3e 5a69 053f
000001a0: ae7a 663f c473 16bf c5b5 94be 1a62 033f
000001b0: c222 1b3f 3f82 8b3f cc15 0cbf ac2c 4f3f
000001c0: 2052 e5bd 6ca6 bbbe 77ed e2bf a0c4 77be
000001d0: 1ac0 66be 1c92 cdbf 4880 9ebe a0a7 1dbe
000001e0: 5eed ab3f b8ea 1e3f 71b6 65bf 1ec3 b23e
000001f0: 05ce 76bf 5960 1dbf ca41 393e 681a 7dbe
00000200: e073 29bf 1f16 ad3f 6af2 e4bf 6705 2cbf
00000210: a0bd a73f b73b 183e b03f fabd 6256 303e
00000220: 3169 4bbf 1ae1 5bbf 2d68 823f 13d4 123e
00000230: 8f6d 403f 4a46 21bf 3181 4ebe 9f15 8fbc
00000240: 130f ba3f 9ed4 19be c24a febe d901 02bf
00000250: 8a2f f83e 869b 3ebe 9613 4dbd 514a ae3b
00000260: 8cd5 083f 6f1e 51bf 5329 bc3d 5c50 bf3c
00000270: edaa 4e3f 38b1 6ebf 62ef bfbd 8c05 b13e
00000280: 527b 23bf 70b8 1d3e 5294 983f 5bec 8bbf
00000290: 7827 503e 5cf8 8cbe 5e3f a73e b959 5abf
000002a0: 065f debe 93e6 233e ec52 19bf 07c7 86bc
000002b0: ac35 7abf 5591 93bf df0f 873e a229 ee3e
000002c0: 0d66 a5be 3290 eebe 5aa6 733d 13db 3b3e
000002d0: 2d0e 173f 7ea5 e13f 08b9 943f dce8 97be
000002e0: f1b4 d3be 4557 4ebe eabe 133f 84fe 01bf
000002f0: f737 2cbf ffed e2be 9ddf 11be aadb de3d
00000300: 6e0d 45bf 9091 0cbe 25c1 42bf 5ff5 563e
00000310: 519a 413e 5860 033f 030d fd3e d00c 463e
00000320: 0df2 713f 8e37 6bbe a714 aabe b10c 2d3e
00000330: becf 6f3e f4c3 07bf 91f3 2b3f 4267 63be
00000340: d242 0abf 9aaf 54be 939d 27bd 1031 d63e
00000350: 903f 97bd 79d9 df3d 3e6f adbe 17a1 293d
00000360: 1861 2e3f 387b 883f f928 953f 5354 823e
00000370: 2983 afbe 072d 253f 85bc 073f 7063 603f
00000380: 492d d33e c2c6 a93f 857f 153f 4579 153f
00000390: 956b 95be f439 96bd dda7 353f 1bb2 96be
000003a0: 32bb 43be 49b0 433e 963c 963e 35d1 f6be
000003b0: a766 c3bd f6c6 d23d fa65 99be 56b2 273e
000003c0: d4ef c73e cd00 193e f0a9 46be 43f1 923f
000003d0: ea03 81be 58e6 23bf 7d75 8abf dbaa 19be
000003e0: 170d b93e 5f5f bd3e e887 2b3f cbc6 183e
000003f0: ad57 42be 0d63 b0bd 334e 2e3f 7bdf c23e
0.61455476 -0.6336425 8.722906e-06 0.11687006 -0.18140231 -0.2077209 0.005908753 0.47170866
-0.56283265 -0.018497778 0.5359686 0.21226458 0.5283549 -0.6350242 -0.5068402 -0.6471745
0.42901692 -0.43373027 0.14019619 0.48460552 -0.24956897 -0.106384456 0.04472126 0.29251483
0.010186447 0.493739 0.05024884 -0.46012825 0.4745735 0.6584211 -0.6591346 0.9064932
-0.045664266 -0.6122061 -1.4413707 1.115235 0.10139406 -0.06952696 -0.26548088 0.21709311
0.55371946 0.07215319 0.2475611 -0.21016076 -1.1141747 1.4090197 -0.60049975 -0.07745794
-0.42589575 -0.31041837 -0.11790938 -0.862742 0.00041986213 0.3654445 0.45461205 0.65773886
-0.91465575 -0.5894046 0.39772823 -0.37418634 -0.015750656 0.17232025 0.21001865 -0.24237677
-0.050652754 0.4472212 -0.39568242 0.5981759 -0.9085509 -0.5454271 0.7197252 0.1605113
-0.22064374 0.6133678 1.2435238 -1.242818 0.15481037 0.91107756 0.16339943 -0.05628341
-0.6005791 -0.6557394 -0.011871928 1.0576798 0.15349865 -0.6832437 0.81416726 -1.3086658
0.79719776 -0.32960603 -0.06327005 -0.33223173 0.15047474 0.131149 -0.3322976 0.33256721
0.4915021 -1.0638565 -0.55979264 -0.45041484 0.15487048 -0.32983625 0.16639988 0.5211388
0.90030944 -0.58770394 -0.2904493 0.51321566 0.6059991 1.0899123 -0.5472076 0.8092754
-0.11197305 -0.36650407 -1.7728719 -0.241961 -0.22534218 -1.6060214 -0.30957246 -0.15395975
1.3431814 0.620769 -0.8973151 0.34914488 -0.9640811 -0.6147514 0.18091503 -0.24717104
-0.66192436 1.3522376 -1.7886479 -0.67195743 1.3104744 0.1486653 -0.12219179 0.17220452
-0.79457384 -0.8589035 1.0188042 0.14338712 0.75167173 -0.6299788 -0.2016647 -0.017466364
1.453585 -0.15022513 -0.4966641 -0.5078407 0.4847377 -0.18614015 -0.050067507 0.005318918
0.53450847 -0.8168706 0.091875695 0.023353748 0.8072956 -0.93239164 -0.093718305 0.34574544
-0.63860047 0.15402389 1.1920264 -1.0931505 0.20327556 -0.27533233 0.32665533 -0.85293156
-0.43431872 0.16005926 -0.59892154 -0.016452326 -0.97738147 -1.1528727 0.26379296 0.46516138
-0.3230442 -0.46594387 0.059484817 0.18345289 0.59006006 1.7628629 1.1618967 -0.29669845
-0.41348985 -0.20150478 0.57713187 -0.50778985 -0.67272896 -0.44322202 -0.14245458 0.10881741
-0.7697362 -0.13727403 -0.76075965 0.20992039 0.18906523 0.51318884 0.4942399 0.19340825
0.94509965 -0.22970411 -0.3321888 0.16899373 0.23419091 -0.53033376 0.6716853 -0.22207358
-0.5400821 -0.20770112 -0.04092176 0.41834307 -0.073851705 0.109301515 -0.33873934 0.041413393
0.68116903 1.0662603 1.1653129 0.2545496 -0.34279755 0.6452183 0.5302203 0.8765173
0.41245487 1.3263781 0.58397704 0.5838817 -0.2918364 -0.073352724 0.70959264 -0.2943276
-0.19114378 0.19110216 0.29343098 -0.48206487 -0.09541064 0.10291855 -0.29960614 0.16376624
0.39050162 0.14941712 -0.19400764 1.1479877 -0.251983 -0.6402335 -1.0817105 -0.15006582
0.361428 0.36986825 0.6700425 0.14919583 -0.18978758 -0.086126424 0.6808807 0.38061127

rnn.weight_ih_l0 f4 [90, 30]
00000000: 26ab a4be 0d40 f1bf 7c5b 58bf 7ad2 87bf
00000010: 9d82 cbbe a6e0 86bf 3343 6ebe 04a1 13c0
00000020: ffce a9bf 7fe0 56bf fc73 01bd d57f 8abf
00000030: be03 93bf 068b cdbe 357d b23e d0a3 6bbf
00000040: d6d3 043d fb78 ae3f 69ad 0640 4fd1 bdbf
00000050: c0d5 e8bf 1427 9fbf de0b f2be 7473 87bf
00000060: ae88 b63f 0f25 263f b749 49bf 8732 42bf
00000070: f90d b53e 0c40 1dc0 983f fbbe 892b 3b3e
00000080: a930 ecbd 80db 91bd 0897 ebbe b689 ff3e
00000090: b35e debf 36a4 16be 726c 103e ee65 d63e
000000a0: 2b64 7e3f 7bd2 85be 8da6 a8be 8ef6 35bf
000000b0: 4bd1 15bf 9111 3bbd 593e 5bbf 21c7 4bbf
000000c0: d0ac 27bc 1140 b9be 55aa 52bf 5082 db3e
000000d0: 398c d4be eaa4 8abf f152 e5be 3cb8 b6bf
000000e0: d609 1ebf 8229 cd3f d33a 81bf f886 b9be
000000f0: a1e7 bf3e 2762 edbe 8259 8cbf 002f a1bf
00000100: 5447 093f a83e 2340 692e 62bf 3c16 e5be
00000110: 1286 a8bf 2549 dd3e 2876 0740 62b4 4c3e
00000120: 32f2 79be cbe4 dfbe 7571 7abe a96b c8bf
00000130: 14ed a83d cc1f 973f fd3f 2140 2d3f edbf
00000140: e69c 81c0 8094 4440 ddb1 32c0 08bf 71be
00000150: 76a9 a7bf dd90 4bbf 1c63 dcbf 18f7 4940
00000160: 27c0 29bf d199 303f 88b1 dabe d3c1 803f
00000170: 7043 0dbf e3ed d7bf 1a76 883f ea3f cb3e
00000180: 5d24 863e 801a 8e3f f499 c83f 54c8 0ac0
00000190: 359d 73c0 1219 09c0 743f d33c 2181 93bf
000001a0: b997 5e40 ee05 89bf 5a94 03c0 517f 3f3f
000001b0: 989a af3e 2074 15c0 1e31 08c0 e6d0 98bf
000001c0: 9c4c b13f 7787 83c0 d8c9 60bf 1a6e c83e
000001d0: fbc2 2e3f a91b 3c40 c130 9d3f 1b2c 8340
000001e0: cee6 51bf 6ac6 82bf 9a72 d13d 9b8c 163e
000001f0: 0cd9 e6be 5519 59bf 3597 a33e 9d10 e4be
00000200: e8d1 a23e bc29 1fc0 c64c ec3e 9068 873f
00000210: 0558 59bf 4128 3dbf 6f9e 0640 f557 80bf
00000220: ead0 0b40 8db2 69bf 66ff 113f f49c 49bf
00000230: 03ad 393f 4d6e b4bf 91c3 07c0 2583 2e3f
00000240: 8252 87bf 3eab faba 214b 33bf d550 6dbf
00000250: 0c6b 1a3d 2f6d 97bf dcb4 e7bf 12df 5fbe
00000260: de18 b4bf afcf 4840 bd8f 42bf 4ad0 823f
00000270: f828 1640 b6c5 1dc0 3ee1 dc3f a105 53bf
00000280: 5ef0 8d40 27dc bd3e dc91 aebf 588f 5cc0
00000290: a4c2 c9bf 9d3c 093f b562 b63d 6913 71be
000002a0: 4936 4ebf f5e0 c7be 42cb 09c0 41ee 8cbf
000002b0: 4767 3cbf b340 2e3f 6efe 7c3f 1ca9 1640
000002c0: f463 5e3f 63ed a33f ac6e 3b3f 91ff b53f
000002d0: 099f 20bf 6ba8 303f 0504 ff3f 0976 59bf
000002e0: f8bd ebbe d0e5 b5be 09df 43bf 793d 16bf
000002f0: 484e 813f 6d8e f5bf 62f7 8d3d 3c63 e8bf
00000300: b96d 6bbe 954c 41bf b730 14bf 5601 d43e
00000310: 9e5a 3ec0 3070 23c0 69a0 d9bf a82d 45bf
00000320: 2741 793f c13e b2bf 964f 90bf 7745 bdbf
00000330: a8c7 a0bf e72c afbc 2557 5fbf 9940 2e40
00000340: daf7 3ac0 7af2 06c0 43ee f4be 03f9 96be
00000350: 58d3 743e 3cea 503f 85b0 663f 79d0 81bf
00000360: 2768 b1bf 702c d3bf 4d47 10c0 43fb 433f
00000370: b79f 313f 2235 f1be b72a a1bf fe8b c1bf
00000380: 6d1f 143e 073a 5fbf bd78 dfbf 85d9 233e
00000390: 05c8 1d3e cc46 eabd d9ff 153e da5d 9fbe
000003a0: 84af 2ebf 25ba 1a40 d402 c5bd 3af8 a73e
000003b0: ce41 55be 8e5d 67c0 844f 963f f969 0cc0
000003c0: 6d38 983f d65f 783f e34d 4cbd d5f6 08c0
000003d0: dd79 eabf 4e82 38bf 8ecd 0f40 507c 12c0
000003e0: 2158 3c40 b4e5 2ac0 5476 aebe 54fb 833f
000003f0: e9e4 173e 6dea 8a3d de2b 3ec0 973b e53e
-0.32161826 -1.8847672 -0.84514594 -1.0611107 -0.39748088 -1.0537307 -0.23267822 -2.3067026
-1.3266295 -0.83936304 -0.031604752 -1.0820261 -1.1485517 -0.4014513 0.3486115 -0.92046833
0.032428585 1.363067 2.104334 -1.4829501 -1.8190231 -1.2433801 -0.4727468 -1.0582108
1.4260461 0.64900297 -0.78628105 -0.7585835 0.35362223 -2.457034 -0.49071956 0.18278326
-0.11532719 -0.071219444 -0.46013665 0.49909753 -1.737265 -0.14711079 0.14103869 0.4187464
0.99371594 -0.26137146 -0.32939568 -0.7107934 -0.5852248 -0.04567105 -0.8564201 -0.7960072
-0.010234073 -0.3618169 -0.82291156 0.42872858 -0.4151323 -1.0831578 -0.44789842 -1.4274974
-0.6173376 1.6028292 -1.0096077 -0.36235785 0.37481406 -0.46363947 -1.0964816 -1.2592468
0.53624463 2.5506992 -0.88352066 -0.44743526 -1.3165915 0.43219867 2.1165867 0.19990686
-0.24408796 -0.43729243 -0.24457343 -1.5657855 0.08248344 1.1806579 2.5195305 -1.8534905
-4.0504026 3.0715637 -2.792106 -0.23608029 -1.309859 -0.7951792 -1.7217746 3.1557064
-0.66308826 0.68984705 -0.4271357 1.005915 -0.55181026 -1.6869472 1.0661042 0.396972
0.26199618 1.1101837 1.5671983 -2.168477 -3.8064702 -2.1421552 0.025787093 -1.1523782
3.4780104 -1.0704935 -2.0559297 0.74803644 0.34297633 -2.3352127 -2.1279979 -1.1938751
1.3851504 -4.110286 -0.8780799 0.391465 0.68266267 2.9391882 1.2280504 4.099134
-0.81992805 -1.0216801 0.10226937 0.14702074 -0.4508747 -0.8480428 0.319513 -0.44543925
0.3180077 -2.4869223 0.46152323 1.0578785 -0.8489993 -0.7388955 2.10342 -1.0026842
2.184626 -0.9128807 0.5703033 -0.78755116 0.7252962 -1.4096161 -2.1213114 0.6816886
-1.0572054 -0.001912452 -0.7003651 -0.92701465 0.037699744 -1.1830195 -1.8102069 -0.21862438
-1.4070089 3.137676 -0.7600058 1.0219815 2.3462505 -2.4651923 1.7256238 -0.82430464
4.4355917 0.37082025 -1.3638263 -3.446249 -1.5762525 0.53608114 0.089055456 -0.2354256
-0.8055158 -0.39038816 -2.1530309 -1.1010209 -0.7359509 0.68067473 0.9882573 2.3540716
0.86871266 1.280682 0.73215747 1.4218618 -0.6274267 0.69006985 1.9923102 -0.8494573
-0.46043372 -0.35526896 -0.765122 -0.5868755 1.0102015 -1.918409 0.0693195 -1.8155284
-0.22991075 -0.7550748 -0.5788683 0.4140727 -2.9742808 -2.5537224 -1.7002078 -0.7702279
0.9736504 -1.3925401 -1.1274288 -1.4786824 -1.256093 -0.021383716 -0.87242347 2.7226927
-2.9213777 -2.1085496 -0.4783803 -0.29486856 0.23908746 0.81607413 0.901131 -1.0141746
-1.385991 -1.6497936 -2.2543519 0.7655527 0.6938433 -0.4711085 -1.259116 -1.5120847
0.14465113 -0.8719792 -1.7458721 0.16000946 0.15408333 -0.11439285 0.1464838 -0.3112629
-0.68236566 2.4176114 -0.0961968 0.3280657 -0.20825884 -3.6150851 1.1743016 -2.193968
1.189222 0.97021234 -0.049878966 -2.1400654 -1.831844 -0.7207383 2.246921 -2.2888374
2.942879 -2.67027 -0.34074652 1.0311074 0.14833416 0.067829944 -2.9714274 0.44772026

rnn.weight_hh_l0 f4 [90, 30]
00000000: bdba 6f3d bfdd debc 3fcb f9bd 8913 2d3e
00000010: 0eee 94bc 2807 b43c 76b4 103e 8dfc 013e
00000020: 80f5 b2bd f9fd 373e 3f91 453c baf1 a93d
00000030: 41f8 123e 1d96 aa3d 5443 103e 3658 6abd
00000040: 0b39 6cbc 2453 2b3e 976c 1b3e 6292 353c
00000050: d06b 8ebd 031d 003d 9337 253e 622c a4bd
00000060: 8953 033e a05a 343e c9d4 19be 52be d33c
00000070: d66d f2bd bc16 cebc a27d 7e3d 0785 063d
00000080: a4e9 07be 90b2 16bd f1cb 133d d1b7 24be
00000090: 9ad9 b63c 28f0 353e c2b4 acbd a287 b13d
000000a0: 93da 3abe b4dc d5bd b9f7 253e a371 08bc
000000b0: 4c5c 163d fc5d 6d3c 66a1 1fbe 2f58 8a3d
000000c0: 78e5 b33c 4262 323e e746 c83d f302 01be
000000d0: 36fb 033e d995 fabd 254c c5bd 6f7f 05be
000000e0: c374 843d ed95 33be c6e0 0c3e 1b6f 7abc
000000f0: f2da 39bd f50c eebd 3fe2 1fbe 8ff1 d7bd
00000100: c655 1e3e a7f5 57bb 4828 30bd 599a f5bc
00000110: ffde 29be 9a68 943d 7406 52bd d004 88bd
00000120: acb1 ca3d 77ff 003e 1933 f33d b5a4 16be
00000130: fbb8 c1bd 715e 8fbd 5715 c93b cea4 723d
00000140: 4047 2b3e 2935 fdbd b9c5 14be 591e d63d
00000150: d82e f0bd 3b69 0d3e a43d febc 6392 173e
00000160: d772 183e f100 0d3e 00fe 8e3d c04b 6dbd
00000170: e50f 943d 973b c33c 1726 03bd c957 23bc
00000180: 0af8 193e c0d1 9abc ed81 39be 9d50 0dbe
00000190: 05f6 373e 3d8d 7fbd 4697 04be d901 b3bc
000001a0: 9e47 98bd 6bfc cfbd ca1e eabd c4a1 08bd
000001b0: 4bf1 93bd e021 88bd c726 983d 85a0 21be
000001c0: 4499 8bbd 5b73 f83d 166a febd 339e 1ebe
000001d0: ad32 21be 3102 16be 9f68 bd3d 5242 28be
000001e0: 164d 123e e93b 5f3d fee3 08be 8926 91bd
000001f0: 6b57 dabd db46 ea3d 5bc2 88bd 531c 083e
00000200: a248 a63c fbff 863d e7eb f83d c31f 7cbd
00000210: 9858 e5bd d872 eebd 11be c4bd a189 03be
00000220: 9110 653d ed23 ea3c 046d b6b9 38de 84bd
00000230: 07e5 023d dd40 15be e0c6 c0bd 5e98 afbd
00000240: 8f25 c4bb 08c5 02bd c4fb d93d d79a 52bd
00000250: 66e4 a53c 78f0 3abe be84 c2ba 6a97 c33d
00000260: e8b2 fcbd 25d7 edbd 6443 333e ee5f 293d
00000270: e3d8 323e 4646 14be 693c 943d 37aa c2bc
00000280: cc6b 05bc c89e 9bbb 837f c83d 3883 e33c
00000290: 04d3 fcbd 2ef2 2b3d af9a 41bc 6fcd 4abc
000002a0: 9bdb bfbd 4fef 09bb f2e0 0a3d de70 3f3d
000002b0: 19fb 91bd 7ca5 32bd 9412 5fbd 0a9d 35bd
000002c0: e0e7 39be ef0a cdbd 7146 0c3e b4e9 72bd
000002d0: e9c5 dabc 9b5f a7bd 0e49 623d 4f46 283d
000002e0: 9547 de3d ccc4 a0bd 8599 1cbe 4542 cebd
000002f0: 3831 3f3d 1b91 373e 5868 833d 0b42 0fbb
00000300: c038 cebd 40f5 72bd f92b 18be 8817 51bd
00000310: 1fbe b93d afb2 d0bb 6385 223e d4e3 ba3d
00000320: ba6f 833d b73d ea3c 7212 19be c338 5f3d
00000330: 81b0 c5bd c058 a53d f4cf 15be 2537 383e
00000340: 2347 463d 2291 b0bd 3771 683c 9489 82bd
00000350: 0dea 113e 0e9d a1bd 4b10 57bd 3819 c63c
00000360: 6bed 783c e8c3 d1bc 8ecf c23d 95db 3f3d
00000370: 12fb 25be 8c01 39bd 1d8b 07bd 28bf 05be
00000380: 0a0e aebd 5290 e03c e286 263e bef2 1c3e
00000390: 8f67 d93d 5401 993c 3e9e 76bd 872f 8d3d
000003a0: dba7 463c 10e7 09be 47df fbbd dcea 8a3d
000003b0: 55da babd 40bb b3bb a423 243e 2836 943c
000003c0: 94eb f7bd f45e 0abd b059 853d 4620 f8bd
000003d0: a465 953b a93c 273e 8ec9 633d 752f 2dbe
000003e0: d675 723c 2b74 1bbe a745 54bd 36d5 973d
000003f0: fc94 f8bd bd44 17be ead1 3ebd e5a8 e23d
0.058527697 -0.027205346 -0.12196969 0.16901983 -0.01817992 0.021976069 0.1413134 0.12693997
-0.08738232 0.17967977 0.012058555 0.08298059 0.14352514 0.08329413 0.14088184 -0.05721303
-0.014417897 0.16730934 0.15178142 0.011082264 -0.06954157 0.031277668 0.16134481 -0.08016278
0.12824835 0.17612696 -0.15022577 0.025847588 -0.11837356 -0.025157325 0.06213153 0.03284171
-0.1327272 -0.036791384 0.036083166 -0.16085745 0.022320557 0.17767394 -0.08432914 0.08668448
-0.18247442 -0.104424864 0.1620778 -0.008327874 0.036709115 0.01448774 -0.15588912 0.06755101
0.021960005 0.17420295 0.097791485 -0.12598781 0.12888798 -0.122356124 -0.09633664 -0.13036893
0.06467583 -0.17537661 0.1375762 -0.015285279 -0.04537482 -0.11623565 -0.1561365 -0.105441205
0.15462407 -0.0032952817 -0.043007165 -0.029980825 -0.16588973 0.07246514 -0.051275685 -0.06641543
0.098971695 0.12597452 0.118749805 -0.14711268 -0.0945911 -0.07000435 0.006136577 0.0592392
0.16726398 -0.12363655 -0.1452855 0.10455007 -0.11727685 0.13809673 -0.031035252 0.14801936
0.14887558 0.1376989 0.069820404 -0.05793357 0.07229594 0.023832126 -0.032018747 -0.00996966
0.15036026 -0.018898845 -0.18115969 -0.13800283 0.17964943 -0.062390555 -0.12948331 -0.021851467
-0.07435535 -0.10155567 -0.11431654 -0.033357397 -0.07223757 -0.06647086 0.07429271 -0.1578389
-0.068163425 0.12131377 -0.12422578 -0.15490036 -0.15741988 -0.14649273 0.092484705 -0.16431549
0.14287218 0.054500494 -0.13368222 -0.07087428 -0.10661205 0.11439296 -0.06677695 0.13292055
0.020298306 0.06591793 0.1215437 -0.061553728 -0.111985385 -0.116429985 -0.09606565 -0.1284547
0.055924002 0.028581584 -0.00034794968 -0.06487697 0.0319567 -0.14575525 -0.094129324 -0.085739836
-0.0059859226 -0.031926185 0.106437236 -0.051417198 0.02025051 -0.18255794 -0.0014840586 0.09550364
-0.12338811 -0.11613301 0.17506176 0.04135125 0.17465548 -0.14479932 0.07238085 -0.023762805
-0.008143377 -0.004749153 0.09789946 0.02777253 -0.123449355 0.041979007 -0.011816665 -0.012378081
-0.09368058 -0.002104718 0.03390593 0.046738498 -0.07127971 -0.04361485 -0.054461077 -0.044339217
-0.1815486 -0.10011851 0.13698746 -0.059304908 -0.026705699 -0.08172532 0.05524545 0.041082677
0.10853497 -0.07850036 -0.15292938 -0.10071234 0.046677798 0.17926447 0.06416386 -0.0021859433
-0.10069418 -0.05931592 -0.14860524 -0.05104783 0.09069466 -0.006368957 0.15871195 0.09125486
0.064177945 0.028593881 -0.14948443 0.05449749 -0.09652806 0.08073568 -0.14630109 0.17989786
0.048407685 -0.08621432 0.014187149 -0.06373897 0.1424944 -0.07891284 -0.052505773 0.024181947
0.015193324 -0.02560611 0.09512244 0.04684027 -0.16209057 -0.04516749 -0.033091653 -0.13061202
-0.084987715 0.027412567 0.16262391 0.15326974 0.10615455 0.018677391 -0.060209505 0.06893831
0.012124981 -0.1346705 -0.12298446 0.06783077 -0.09123675 -0.0054849684 0.16029221 0.01809223
-0.1210548 -0.03378196 0.06511247 -0.12115531 0.0045592356 0.16331734 0.05561214 -0.16912635
0.014798602 -0.15181033 -0.05182424 0.07413714 -0.121377915 -0.14772315 -0.04658691 0.1106737

rnn.bias_ih_l0 f4 [90]
00000000: 702c 9bbd 2881 2f3e 34db 303e 466a 11bf
00000010: 4b86 003f db18 13be 0b38 7dbd 4afd 1f3d
00000020: 8ffd 0bbf 1316 133f fa2b 59be f235 093f
00000030: 78de 47bf 6cb6 aa3e 9da2 22be 6a13 14bf
00000040: 4785 ce3e d7e9 36bf 900b dcbe cc3b 9ebe
00000050: 0895 88be 94c5 d3bd fa89 ef3e 8df6 203c
00000060: 987d e6be 644c 4ebc a7b1 4b3f 0897 bebf
00000070: f20f 59be 0a36 96bd 06c5 81bf 9dd0 573f
00000080: a4dc 1ebf 5206 08bf 80b9 87be 2ab1 073c
00000090: b68f ddbe 9fd6 67bf edd5 30bf 7e37 ecbe
000000a0: 4c17 bebe 1d96 2ebf 301b 3ebf 04ea adbd
000000b0: 7de6 a7be f0fc 5abe 4ca3 14bf 4af5 78bf
000000c0: a17b 46be 98fa 82bf c038 3ebf 9e75 293d
000000d0: 93be 0ebf e19a cd3e 427a d3be 3189 cdbe
000000e0: c34c 2fbf 3461 c2be 1f99 e6be 4611 2c3d
000000f0: c73a a6be 3278 303f 87ec 063c cfe7 8bbe
00000100: 1777 323f 30b9 82be 9f7c cd3e 38a0 383e
00000110: 9c6c cb3e e547 453e effe ae3c cf95 353f
00000120: c001 353e b7f7 263f a481 3ebe 100c 03bf
00000130: e6a8 87be 5775 ee3d 454c b5be c4ef c6be
00000140: 1d87 733d 99e2 debd 5a21 513e f71d b93e
00000150: d8fa b6be 4412 093f 979c 313f 36f0 cfbe
00000160: 5a7c c3bc 4589 883e
-0.07576835 0.17139113 0.1727112 -0.56802785 0.50204915 -0.1436495 -0.061821025 0.039059915
-0.54683775 0.5745556 -0.21208182 0.5359794 -0.78073835 0.33342302 -0.15882345 -0.57842124
0.40336058 -0.7145056 -0.4297757 -0.30904996 -0.26676202 -0.103404194 0.46784955 0.009824407
-0.45017695 -0.012591455 0.7956795 -1.4889841 -0.21197489 -0.07334526 -1.0138252 0.84302694
-0.6205542 -0.53134644 -0.26508713 0.008281985 -0.43273705 -0.9056186 -0.69076425 -0.46136087
-0.3712715 -0.68197805 -0.74260235 -0.084919006 -0.32793036 -0.2138555 -0.5806167 -0.9724928
-0.19383098 -1.0232725 -0.74305344 0.041371934 -0.55759543 0.40157226 -0.41304213 -0.4014373
-0.68476504 -0.37964785 -0.45038697 0.04200866 -0.3246672 0.68933403 0.008235103 -0.27325293
0.69712967 -0.25531912 0.4013414 0.18029869 0.397313 0.19265707 0.021361796 0.70931715
0.17676449 0.6522173 -0.18604141 -0.5119028 -0.26496047 0.116434745 -0.35409752 -0.38854802
0.059455026 -0.10883064 0.20422879 0.36155674 -0.35738254 0.53543496 0.6937956 -0.40612954
-0.023863006 0.26667228

rnn.bias_hh_l0 f4 [90]
00000000: a61c a8be 8b8a 153e 8eea fb3d 0ded 10bf
00000010: 9831 dd3e 018b be3c 6d3f 89be f70f f7bc
00000020: 1fcd ecbe c892 363f 7c72 58be 6501 eb3e
00000030: faee 14bf a122 253f f320 b6bd 3eca 1bbf
00000040: 8518 d33e 201e 0dbf 88a7 e7be fc9a 8ebe
00000050: b437 ddbd 086e 253e ae9c 183f a4f1 773e
00000060: 0898 0abf 35cb 97bc b472 073f 81e2 c1bf
00000070: e3da bfbe be79 243e e216 74bf 4766 703f
00000080: 1731 01bf b662 02bf 2fc7 07bf 8f21 6ebe
00000090: a7d6 8abe 3378 72bf db73 34bf c6dc 15bf
000000a0: 46a9 c1be 7ae9 32bf fbb5 3fbf a8b9 67be
000000b0: ce52 76be c43e 2dbe 2429 3fbf aaf3 85bf
000000c0: 4458 b3bd d71e 83bf 688d 62bf d4fc 24be
000000d0: 8cb1 2dbf 76a6 163e 7133 25bf bda8 1cbf
000000e0: 5c4c 03bf d571 a0be bc54 b6be c3ef c63c
000000f0: be41 263a 4243 e13e ad1e a53f b5eb 45bf
00000100: a9c0 953f d688 683f bec4 103f a8ec 353f
00000110: 9247 923f 680a 393f bb46 83bf 0711 573f
00000120: 758d 423f bb52 413f 6c5e a93f 591f efbe
00000130: 13db 423f 8fed 603f 2d3b a2bf 60fb 33bf
00000140: 52d9 94bf 0f79 333f 6a37 7fbf 3f42 ab3f
00000150: a965 19bf d5f0 873f 18b3 633f 9afc 8d3f
00000160: 73c1 4cbf b5b0 573f
-0.32834357 0.14603631 0.12300597 -0.5661171 0.432019 0.023259642 -0.26806203 -0.03015898
-0.46250245 0.7131772 -0.21137422 0.458995 -0.5817715 0.64505965 -0.08893003 -0.6085547
0.41229644 -0.5512409 -0.45245004 -0.2785262 -0.1080164 0.16155255 0.59614074 0.24213272
-0.5413823 -0.018529514 0.529094 -1.5147249 -0.37471685 0.16062066 -0.95347416 0.9390606
-0.5046553 -0.5093187 -0.53038305 -0.23254989 -0.27116892 -0.9471466 -0.7048928 -0.5854
-0.37824458 -0.69887507 -0.74887055 -0.22629416 -0.24055025 -0.16918474 -0.7467215 -1.0464985
-0.0875707 -1.0243787 -0.8849702 -0.16112071 -0.6784904 0.14711937 -0.6453162 -0.61194974
-0.5128839 -0.31336847 -0.35611522 0.02428425 0.0006342194 0.43996626 1.2899987 -0.77312785
1.169942 0.90833795 0.56550205 0.71064234 1.1428092 0.72281504 -1.025596 0.84010357
0.75997096 0.7551686 1.323194 -0.46703604 0.7611553 0.87862486 -1.2674309 -0.7030544
-1.1628821 0.70106596 -0.9969393 1.3379592 -0.59920746 1.0620371 0.8894515 1.1092713
-0.7998268 0.8425401
